mnist_model.pth (torch, 249799 bytes, 10 tensors)

0.weight f4 [6, 1, 5, 5]
000000 e0 7e f6 3d d1 98 a9 bd 80 32 c8 bd f7 14 84 be
       0.12035918 -0.082811005 -0.09775257 -0.25797245
000010 5c 22 56 be 5c a5 07 bd 7f ed 21 be 64 3d 98 bd
       -0.20911545 -0.033116683 -0.15813254 -0.07433584
000020 b9 6a 87 be f0 71 12 be 97 dc 52 be 66 3e 82 be
       -0.2644861 -0.14301276 -0.20591961 -0.2543823
000030 ff 6a 72 3c 20 1e 88 be 04 21 19 bd 2a dc 97 bd
       0.014796018 -0.26585484 -0.037385 -0.0741504
000040 36 40 7e be 29 4f 2a bd 0e 2f 34 be 96 9c 03 3c
       -0.24829182 -0.0415794 -0.17596075 0.008032938
000050 04 71 ba bc 73 c1 ea bd 31 5a 8b bd 58 56 2f be
       -0.022758968 -0.11462679 -0.06804312 -0.17122781
000060 5e 21 44 3d a3 34 7b 3e f0 61 66 3e 44 28 a1 bc
       0.047883384 0.24531798 0.22498298 -0.01967252
000070 c6 b2 55 3e a1 a6 41 3e a6 41 14 3e 5f 39 b7 3e
       0.20868978 0.1891122 0.14478168 0.35785958
000080 28 20 a9 3e 0c 19 6a 3e db 6e 9e 3e 9e d5 52 bd
       0.33032346 0.22861117 0.3094395 -0.051473252
000090 72 f7 48 bb c7 c6 8a bd 97 eb e1 bd f3 28 45 3c
       -0.0030665067 -0.06776195 -0.11031263 0.012033689
0000a0 fe 0a 6a be ab 18 0a be 83 9b 5b be 4a 5e 2b be
       -0.22855756 -0.13485973 -0.21446042 -0.16735187
0000b0 e4 ae 0d be 94 e9 14 be 13 eb 85 be 1b ae 92 be
       -0.13836247 -0.14542228 -0.2615591 -0.28648457
0000c0 99 76 1f be 26 d7 2f be 87 70 f8 bc fb 2d 97 3e
       -0.15572585 -0.17171916 -0.030327095 0.29527268
0000d0 be e2 69 3d d2 a4 60 3e 9e 16 8f 3e f5 13 47 3e
       0.057101004 0.21937874 0.27946943 0.19441207
0000e0 85 47 a9 bd ec 0f 7d 3e ec 31 46 3e 4c f4 08 3e
       -0.082655944 0.24713105 0.19354981 0.13374442
0000f0 17 50 e8 3d dc ca 59 be 94 3f 57 be bf 73 db bd
       0.11343401 -0.21268791 -0.21020347 -0.10715436
000100 de 87 04 3e 36 4f 03 be 6c 38 93 be dc 21 75 be
       0.12942454 -0.12823185 -0.28753984 -0.23938698
000110 fe 5e f6 bd fa 8f 2c be 38 b8 48 be 21 3f 93 3d
       -0.12029837 -0.16851798 -0.19601524 0.07189775
000120 38 78 67 3c cf 49 61 3d 27 4f 15 be 98 2d 95 3d
       0.0141277835 0.05500203 -0.14580975 0.07284087
000130 81 d7 80 3e d2 cd 68 3e 7c 1e 61 3e 79 92 9d be
       0.25164416 0.22734764 0.21984285 -0.30775812
000140 5c ac 1c 3e 86 a2 d2 3e 8e 21 a2 3e e2 e4 ac 3e
       0.15300125 0.4113962 0.31666225 0.33768374
000150 b9 8e 6a bd 35 4a 60 be 68 71 6b be 63 c6 e1 bd
       -0.057265017 -0.21903308 -0.2299248 -0.110241674
000160 c2 84 a6 3e d9 a9 c0 3e 26 4f 96 bd e8 db 30 bd
       0.3252316 0.37629583 -0.07339315 -0.04317847
000170 a2 d8 36 be 8b 20 f6 3d 52 53 de 3d ce 13 11 bd
       -0.17856076 0.12017926 0.10855736 -0.035419278
000180 89 21 fc bd 70 e2 73 be 94 38 f4 3d 47 7c 92 3e
       -0.12311084 -0.23816848 0.11924854 0.2861044
000190 fd 25 c5 be 28 01 04 3e 36 cb c6 3e 78 53 b1 3e
       -0.38505545 0.12891066 0.38826913 0.34633994
0001a0 2f 8b ec 3b 4d 2e 4a be 51 f7 96 3e 4b f3 73 3e
       0.0072187404 -0.19744225 0.29485562 0.23823278
0001b0 43 ec 4d 3e e1 28 53 bd eb 18 b0 be 15 02 ae 3e
       0.20109658 -0.051552657 -0.3439401 0.33985963
0001c0 f8 9c a0 3e 84 27 87 3e 11 19 fd be 31 84 25 bd
       0.31369758 0.26397336 -0.49433187 -0.04040927
0001d0 d4 79 de 3e 09 b2 d0 3e b5 63 2d be d2 22 44 be
       0.43452322 0.4076083 -0.16932566 -0.19153908
0001e0 51 4c 5e 3c b7 ff 2b 3e 46 22 94 3e e4 a0 2e bd
       0.013568 0.16796766 0.289324 -0.042633906
0001f0 e2 b0 d8 be df c6 72 be 0b 2d 2f be e4 8b 1e 3c
       -0.4232245 -0.23708676 -0.17107026 0.009676907
000200 6d d2 b3 bd 5f 16 ec bd 50 d7 81 be bd cc a1 be
       -0.0878037 -0.115277044 -0.25359583 -0.31601515
000210 f6 d7 47 be 96 9b 9d be 2e c2 0d be 16 9b 87 bd
       -0.19515976 -0.30782765 -0.13843605 -0.06621377
000220 95 80 24 be 62 9f 10 be 0b 34 77 be 88 df b0 3c
       -0.16064675 -0.141233 -0.24140947 0.021590963
000230 76 df ff 3d 4e 72 3b 3e 1f f1 4f 3d 4a 6c 4a bd
       0.12493794 0.18305323 0.05076706 -0.04941968
000240 32 19 b8 3d f0 82 69 3e c5 5b 7f 3e 97 a7 88 3d
       0.089891806 0.22803855 0.24937351 0.0667259
000250 fe e6 03 3e 66 c7 8d bc
       0.12881085 -0.017306995

0.bias f4 [6]
000000 94 47 5c 3d 40 10 6a 3c c0 f2 3a 3d 01 19 27 3e
       0.0537792 0.014286101 0.04564166 0.16318132
000010 ba 18 3a bd 5a 18 dc bd
       -0.045433737 -0.10746832

3.weight f4 [16, 6, 5, 5]
000000 e3 19 65 bc f1 38 a3 bd 58 4f d0 3c 29 03 fc 3d
       -0.013983223 -0.07969845 0.025428459 0.1230529
000010 86 df 1e 3d c2 83 59 3d 8d 67 29 3d 47 c2 72 3d
       0.038787387 0.05310417 0.04135852 0.05926731
000020 ae 84 ef 3d d9 f2 24 3d cf d7 5b 3d d4 ac 8e 3d
       0.116952285 0.04027066 0.053672608 0.06966558
000030 54 21 01 3e 17 71 66 bd 42 89 a8 bd 1a 93 d0 3d
       0.1261037 -0.056260195 -0.08229305 0.101843074
000040 13 95 69 3b 54 92 75 bd 2a 84 52 bc 2e 0b ce bc
       0.0035641834 -0.059954002 -0.012848893 -0.025151815
000050 4f d3 40 3b 40 83 b0 3d 44 68 2a 3d 63 23 c1 bd
       0.0029422825 0.08618784 0.04160334 -0.094305776
000060 9e c5 8c bd 0d 62 62 be fb d7 32 be c0 d4 71 be
       -0.0687363 -0.22107716 -0.17465203 -0.23616314
000070 5c 7e 92 be 41 00 a1 be 62 3e 06 be de 3c 35 be
       -0.2861203 -0.31445506 -0.13109735 -0.17699
000080 7a b5 87 be bd e8 90 be 04 a3 a5 be 06 35 a5 bd
       -0.26505643 -0.28302565 -0.32350934 -0.08066754
000090 a0 99 0f be 8c ca 6b be ec d2 83 be d8 eb 3b be
       -0.14023447 -0.23026484 -0.25746858 -0.18351686
0000a0 5d 5e da bd ce 9c 8e be a5 4f 6e be 44 5b 6d be
       -0.106625296 -0.27854007 -0.2327257 -0.23179346
0000b0 36 df 3b be c4 2c 7a be ef f0 e0 bd 87 3f 62 be
       -0.18346867 -0.24431139 -0.109834544 -0.22094546
0000c0 19 af 27 be 41 d1 1f be 5f 55 45 bd 1d 8d 42 be
       -0.16375388 -0.15607168 -0.04817712 -0.18999143
0000d0 90 0a 2b be 9c 57 c7 bd 9e 2a 29 be 72 87 09 be
       -0.16703248 -0.09733507 -0.16520163 -0.13430575
0000e0 d3 22 4f bd 90 04 cf bd 45 57 93 be c7 77 8f be
       -0.05057032 -0.10108292 -0.2877752 -0.2802107
0000f0 4e e7 d1 bd 0e 47 19 be f8 2a 53 be 6f e8 8a be
       -0.10249196 -0.14968511 -0.2062186 -0.27130458
000100 92 83 27 be 88 9f 1e be 1e 78 a9 bd 26 07 56 be
       -0.16358784 -0.15490544 -0.08274864 -0.20901164
000110 f2 5a 1d be 83 ba 28 be d3 8c 47 be 53 d3 aa bd
       -0.15366724 -0.16477399 -0.19487314 -0.08341088
000120 10 e2 13 bd e1 aa c5 bd d3 77 c1 3c ed 77 58 3c
       -0.036104262 -0.09651733 0.023616707 0.013212186
000130 d1 d0 64 3d b1 74 d8 bc 37 f4 9d bd 23 d4 27 bc
       0.055863205 -0.02642283 -0.07712596 -0.010243448
000140 28 33 d5 3b 6c 74 27 3e 34 44 66 3c 8b 94 59 be
       0.0065063424 0.16353005 0.014054347 -0.21248071
000150 4f 3f 3c be 39 f0 0b 3e 36 29 fa 3d c9 97 07 be
       -0.18383525 0.13665856 0.122148916 -0.13241495
000160 c9 2c 10 be 37 19 36 be ce 69 06 3b 2f bc 1b bc
       -0.14079584 -0.17783056 0.0020509842 -0.009505316
000170 a7 d1 50 3c ca e0 78 bc 61 fe 7b bd e8 5b 75 3c
       0.0127452975 -0.015190313 -0.06152189 0.014975525
000180 ec 7e 15 bc 52 7c 6c 3d 36 1d ff 3d 91 3f b6 3c
       -0.009124499 0.05773575 0.124567434 0.022247108
000190 01 9f bf 3e 2b ac cd 3e 52 bf 94 3e b5 f7 41 3e
       0.37425998 0.40170416 0.29052216 0.18942149
0001a0 25 9a 5d 3e a8 ce a4 3e d1 7c 71 3e cf de 23 3e
       0.21640833 0.32188916 0.2358277 0.16002963
0001b0 d2 dc c3 3d ce 9f 56 3e 22 8c 89 3e d0 74 36 3e
       0.095636025 0.20959398 0.26864725 0.17817998
0001c0 2d a5 a7 3d 93 a0 48 3e 85 c1 0f 3e 28 ed a0 ba
       0.08185802 0.19592504 0.14038666 -0.0012277709
0001d0 de 39 4c 3d a1 2f 32 3e c4 e7 0f 3e 1a 6e 18 3c
       0.049859874 0.17400981 0.14053255 0.009303594
0001e0 aa 7a b4 bc 32 58 ad 3d 9c 94 83 3d 99 3a 1f 3e
       -0.022031147 0.084640875 0.06424829 0.15549697
0001f0 d8 0c 9a 3c 2c be 48 3d 2d 10 e3 bc db 76 a0 bd
       0.018804953 0.049009487 -0.027717674 -0.0783517
000200 1a 58 8c 3d e2 85 6f bd f5 55 b4 bc ce 13 aa 3c
       0.068527415 -0.05847729 -0.022013644 0.020761397
000210 27 df 4a 3d 7a ea 22 bd 7e 72 5a 3d 81 4b 70 bd
       0.04952922 -0.039774396 0.053331845 -0.058665756
000220 67 1d 13 bd 3e 57 80 3d 5f 14 ea 3c ca 97 b5 3c
       -0.035916712 0.0626664 0.028574167 0.022167105
000230 e3 a6 dd 3d dd 7c 05 3e 84 1f a8 bc 95 59 bd bd
       0.10822847 0.13035913 -0.02052284 -0.09245602
000240 01 40 14 bb 24 7f fe 3d ff cc ee 3d 2f dc b6 bd
       -0.0022621157 0.12426594 0.11660194 -0.089287154
000250 fe 9d f0 bb a9 ab 63 bd 38 4b 0f be 3c 2c 08 be
       -0.007343053 -0.05558363 -0.13993537 -0.13298124
000260 c5 97 af bd ee 9f a3 bc 3b 85 bd bd 84 fb 55 bd
       -0.085738696 -0.019973721 -0.09253927 -0.052241817
000270 40 4c 1c 3d 5e 06 98 3c b4 7c 18 bd 35 72 e1 bd
       0.038158655 0.018557724 -0.0372283 -0.110081114
000280 f3 8b bd 3d b9 75 a9 3d 4c 00 00 3e 9f 5f 8c bc
       0.09255209 0.08274407 0.12500113 -0.01713544
000290 a3 44 26 bc 58 f7 80 3c 9c 5f 95 bc d3 1a 86 3d
       -0.0101482 0.015742943 -0.018234067 0.06548085
0002a0 d6 21 33 3d ac d9 df 3d ab 6c d9 bc 8e c9 93 3d
       0.04373344 0.109301895 -0.026541075 0.07216178
0002b0 2b 84 a1 3c 9b e2 32 bc 34 f9 43 3d 54 30 9d 3d
       0.019716343 -0.010918285 0.04784508 0.076752335
0002c0 03 b3 b8 3d a0 c2 20 3d 0e cd 4e 3d 1b d7 a7 3d
       0.09018519 0.03924811 0.050488524 0.08195325
0002d0 d7 04 46 bc 03 f4 b3 3d 36 99 ad 3d 95 0f 8d 3d
       -0.012086115 0.08786776 0.08476488 0.06887738
0002e0 79 14 19 3e 6c 0d 2e 3d 33 ac 0b be 71 86 21 be
       0.14949216 0.04249327 -0.13639908 -0.15773942
0002f0 93 a9 bf bc d1 19 c7 bd 20 0f fd bd 72 8b 27 be
       -0.023396289 -0.09721721 -0.123564005 -0.16361788
000300 22 b8 ec bd 1d 0e 99 bd df 0a 67 bd 0b f4 81 be
       -0.11558558 -0.07473395 -0.05640685 -0.25381503
000310 a7 f9 0b be 9c 31 4f bd 87 e9 46 be e3 bb 34 be
       -0.13669454 -0.05058442 -0.19425021 -0.17649798
000320 b9 5c 4c 3c ec 5f 94 ba b9 18 e5 3c 13 1a db 3a
       0.012473279 -0.0011320091 0.02796589 0.0016716145
000330 8c 36 38 3c 34 6c c8 bb b9 32 4b ba 89 b7 fb 3d
       0.011243474 -0.0061164144 -0.0007751394 0.12290866
000340 d4 41 08 3e cc 56 c6 3d 41 59 9b bd 08 a3 a1 bd
       0.13306361 0.09684524 -0.07585383 -0.07892424
000350 8a 3b f0 bd 05 c7 58 bd 70 41 8e bc 95 bd 86 bd
       -0.11730106 -0.052924175 -0.017365187 -0.06579129
000360 be 13 88 be d8 3f ef bd fd db f2 bb e0 6a dd bd
       -0.26577562 -0.11682099 -0.0074114786 -0.108114004
000370 1c 0f 26 be 3d 8f 04 be f4 c5 6c be 78 58 53 be
       -0.16216701 -0.12945266 -0.23122388 -0.20639217
000380 36 68 6c be a4 3b dc 3d f3 68 aa 3c b5 6f 7d 3d
       -0.23086628 0.10753563 0.020801997 0.06187411
000390 75 4f 9f 3c df 57 dc 3d bf 81 f5 3d 4e bb ab 3d
       0.019447068 0.107589476 0.11987638 0.08385335
0003a0 26 23 2e 3d 85 62 54 3d d5 c3 23 bd 1c 5d 04 3d
       0.04251399 0.051851768 -0.03998168 0.03231536
0003b0 d4 53 70 3d c6 35 07 be 4f 16 43 be fd ce 41 be
       0.058673695 -0.13204107 -0.19051479 -0.18926616
0003c0 3f 0e ee 3d d1 33 b0 bd 03 fe 21 be d5 12 1a be
       0.11623811 -0.08603633 -0.15819554 -0.15046246
0003d0 08 90 e5 bd 94 8e af bd 63 59 5e be 4e 3b 49 be
       -0.112091124 -0.085721165 -0.21713786 -0.19651529
0003e0 e2 18 96 be 97 92 94 be 5e 92 af 3d be 80 a4 3d
       -0.2931586 -0.2901809 0.08572839 0.08032368
0003f0 d2 5e 1b 3e e7 f3 17 3e ea de 88 3d 3c fc f7 3d
       0.1517289 0.14839135 0.066831425 0.12108657

3.bias f4 [16]
000000 a6 f8 a6 bb aa 04 a4 bc 0a cf 47 bd 7a 3a 4e bd
       -0.005095559 -0.020021755 -0.048781432 -0.050348736
000010 ee 03 ee bc bd 91 9c 3d 26 df 4c bd af 3e af bd
       -0.029054608 0.07644985 -0.0500175 -0.08556878
000020 4a c4 dd bd ca 5d 46 bd 9a 7a b2 bd 1d 7f 51 3d
       -0.10828455 -0.048429288 -0.08714791 0.051146615
000030 92 17 76 3d 50 59 8a 3d e6 82 90 bd 92 56 b7 3d
       0.060081072 0.06755316 -0.07056217 0.08952059

7.weight f4 [120, 400]
000000 6a 0a cf 3c 8d ed 97 3c 10 98 a2 bb 48 1d 29 bb
       0.02527352 0.01854589 -0.004961975 -0.0025804807
000010 c3 b7 94 bb 3b 9b 81 bc 3f a8 39 bd 14 ea 3a bb
       -0.0045385077 -0.01582109 -0.045326468 -0.002852087
000020 df 98 7e bd 16 a7 95 bc 89 16 5d bd 53 c6 e6 bc
       -0.062157508 -0.01826815 -0.05397657 -0.02817074
000030 48 f8 a3 bc 10 70 82 3c 18 56 d6 3c 46 35 43 bd
       -0.02001585 0.015922576 0.0261641 -0.047658227
000040 bc eb 69 3c fc 46 c8 bb 32 39 a3 ba a3 29 97 3b
       0.014277395 -0.0061119776 -0.0012452959 0.004613118
000050 8c 84 c1 bc ad 8b 6b 3c 9f ae 3a 3c b7 9f 74 bd
       -0.023622774 0.014376563 0.011394172 -0.05972263
000060 20 49 ef 3c 56 3c f9 bc f0 fd ce bc a5 e2 5b ba
       0.029209673 -0.030424278 -0.025267571 -0.00083879597
000070 2d 13 e4 bc 69 62 12 bd 9a ee f6 bc 83 fa 80 bc
       -0.027841175 -0.035738382 -0.030143071 -0.015744453
000080 1f 65 fe bc 2f c0 45 ba 6d 94 2c 3b e1 fc a5 3c
       -0.031054078 -0.0007543591 0.0026333586 0.020262184
000090 fe 2a ef 3b 98 87 3c bd f2 ce 73 3c fd f1 23 bd
       0.0072988262 -0.04602775 0.014880883 -0.0400257
0000a0 99 e0 8b bc b5 d3 0f bd 05 da 47 bc 31 3a 4b bd
       -0.01707487 -0.03511401 -0.012197976 -0.049616043
0000b0 f0 d8 d8 bc 5b 61 23 bd 19 da f6 bc 6e 52 fc 3b
       -0.026470631 -0.039887767 -0.030133294 0.007700256
0000c0 61 ad ae bc 0a bc d3 3c 3b de 88 bd cf c9 bb bc
       -0.021322908 0.0258465 -0.06683012 -0.022923378
0000d0 b8 11 a6 3c 29 84 12 bd f9 00 37 3d f2 32 8d bd
       0.02027212 -0.03577057 0.044678662 -0.06894483
0000e0 1d 48 52 3c 6c 11 87 bd 41 2e 9d 3c 9c 92 3a 3d
       0.012834576 -0.0659512 0.019187095 0.045549974
0000f0 5a 68 d7 bb d8 e2 2b 3d 4e 30 88 bd 42 e5 6a bb
       -0.006573719 0.041964382 -0.066498384 -0.0035842215
000100 e8 d5 21 3d 21 14 65 3c 7b 27 9e bb d7 3c eb bc
       0.039510638 0.01398185 -0.004826484 -0.028715534
000110 a4 79 47 bd 56 ec 5e bd 06 62 d1 3c 2a b1 25 bd
       -0.04869999 -0.054424606 0.025559437 -0.04045216
000120 c2 6d c2 3b 27 ce be bc b3 45 8b bd 4d 3d e8 3b
       0.0059334943 -0.02329166 -0.068004034 0.0070873857
000130 af 79 12 bc 1f 86 81 bc 0d 40 4b bd d5 a6 99 3c
       -0.008940144 -0.015811024 -0.04962163 0.01875631
000140 ff be 86 bd f4 02 b5 bc a3 c2 59 3c 11 fe ba bc
       -0.06579398 -0.022096135 0.013291034 -0.022826226
000150 aa 74 d6 bb 52 d4 38 bd a5 61 33 bd b9 5f a3 bc
       -0.006544669 -0.04512436 -0.043794293 -0.019943105
000160 2c 93 de 3c b8 e2 b9 3c 2c 7d 3c bd cf 3f bb 3c
       0.027169786 0.022691116 -0.04601781 0.022857575
000170 88 24 28 3d 00 25 d6 3b a5 7e 3f 3c 8f 83 57 bc
       0.041050464 0.0065351725 0.011687909 -0.013153925
000180 f1 d1 76 bc 39 62 1c bd 39 3f e5 bb 73 21 88 bd
       -0.015064702 -0.03817961 -0.006996062 -0.06647005
000190 ec 97 e7 bb ed ae 9a bc 9a eb 82 bd fb 9f 08 3c
       -0.007067671 -0.01888224 -0.06392594 0.008338924
0001a0 08 a2 f4 bc e3 f6 65 bd 72 5f 31 3c 38 c1 23 bd
       -0.029862419 -0.056143653 0.010825979 -0.03997919
0001b0 ae d7 33 bd d8 46 14 3c 85 53 20 bd c2 4b 1d bd
       -0.04390686 0.009050094 -0.03914215 -0.038402326
0001c0 11 d6 b4 3b 8a 34 35 bd ba 38 00 bd a4 f8 11 3c
       0.0055186828 -0.04423956 -0.0313041 0.008909378
0001d0 b1 ea 0a bd ad 9e 7d bd 26 8b c4 bc fc 2c f5 3c
       -0.033915225 -0.061918903 -0.023992132 0.029928677
0001e0 eb 23 76 bd e4 b8 da 3c 1c 49 49 3c fe 57 a7 bc
       -0.060092848 0.02669949 0.012285497 -0.0204277
0001f0 5e e0 8c 3c 88 72 88 bd ca f6 19 bd a1 68 fa 3b
       0.01719683 -0.0666247 -0.037588872 0.0076418673
000200 47 c3 f4 bc 43 e9 23 3d 52 8b 22 bd 35 e4 32 bb
       -0.029878272 0.040017378 -0.039683647 -0.0027296667
000210 d3 31 05 3d 47 97 66 bd 2a 34 66 bd 20 66 d2 bb
       0.03251822 -0.056296613 -0.05620209 -0.0064208657
000220 77 75 77 3c 3a 34 ed 3c 92 ea f9 bc ce e5 cb 3b
       0.015103689 0.028955568 -0.03050736 0.006222463
000230 59 1b 52 bd 79 85 e1 3c a9 e3 ea bc 32 15 3a 3c
       -0.051295612 0.027529465 -0.02867301 0.011357592
000240 3d 20 92 bc a8 d7 11 bc b4 48 f4 3a e8 18 87 bd
       -0.017837638 -0.008901514 0.001863739 -0.06596547
000250 a2 67 de 3c 4b cb 4a bd 02 b0 83 bd 2d be 81 bd
       0.027149025 -0.04951028 -0.06430055 -0.06335101
000260 a2 aa 59 bd ae 94 33 bd 58 f4 01 bb cf 54 12 bc
       -0.053141244 -0.043842964 -0.0019829478 -0.008931353
000270 c4 21 2b 3a 19 a0 b1 3c ae f0 ea bc 1c cd 35 bd
       0.0006528164 0.021682786 -0.028679218 -0.04438506
000280 71 87 d5 bc 84 81 80 bd 4d 3a 90 3c 51 92 01 bd
       -0.02606556 -0.06274703 0.017605925 -0.03163368
000290 ec 10 c1 bc b3 e8 cd bc 7e 67 96 3c 2e ac eb bc
       -0.02356764 -0.025135374 0.018359896 -0.028768625
0002a0 c7 92 b3 bc c2 95 e5 bc 24 74 87 3c af e5 da bc
       -0.021920575 -0.028025512 0.016534872 -0.02672085
0002b0 31 d5 05 bd 1c d8 d5 3c c7 42 11 3c fc 27 90 bc
       -0.03267402 0.026104026 0.008866019 -0.017597191
0002c0 ba bc 84 bd 15 e6 49 bd 35 80 1c bd 97 9c 17 3c
       -0.06481309 -0.04929169 -0.038208205 0.0092536425
0002d0 8b 67 40 3d d9 fa 09 bd 08 ba 21 3b 86 92 57 bc
       0.046973746 -0.033686493 0.0024677534 -0.0131574925
0002e0 ea eb d8 3c 95 68 8b 3c 34 ee cd bc d5 c2 df 3b
       0.02647968 0.017017642 -0.025137998 0.0068286457
0002f0 86 8b 7d bd c2 6f 31 bd d4 96 2e 3c eb b4 7e 3c
       -0.061900638 -0.04331947 0.010656077 0.015546064
000300 7e 05 4f bc 3a 4a 80 bd a2 c8 31 bd c3 92 4b bd
       -0.012635587 -0.062641576 -0.04340423 -0.04970051
000310 ed 00 4c bb b8 b9 e3 3c d0 de b9 bc 1d 33 a5 bb
       -0.0031128481 0.027798519 -0.022689253 -0.0050414936
000320 cd 19 30 bd 11 92 b9 3c fa 34 8d bd 30 99 0b bc
       -0.042993356 0.022652658 -0.0689487 -0.008520409
000330 2d 31 eb bc 02 22 33 bc 60 50 a7 3c 98 1b bb 3c
       -0.028709972 -0.010933401 0.020424068 0.022840306
000340 be 31 74 3b 15 75 24 3d e2 98 91 bb b2 cf a5 bc
       0.0037261094 0.04015072 -0.004443274 -0.020240638
000350 15 30 d2 3c ab 69 7b 3c 8b cf c5 bc ad 38 13 3d
       0.025657693 0.015345017 -0.024146816 0.035942722
000360 81 d4 09 bd 97 c9 13 bc 75 14 94 bc bb 23 e3 3b
       -0.033649925 -0.009020231 -0.01807616 0.0069317496
000370 a9 11 76 3c 6e b8 e0 3c c4 a5 f6 3b 4e 47 b0 bc
       0.015018859 0.027431693 0.007527085 -0.021518376
000380 99 af 53 bd 45 c1 e3 3c ee 6b 0e bd 18 85 84 3c
       -0.051681135 0.027802119 -0.0347709 0.016176745
000390 88 63 3e bd df 03 7a bd 36 ca 3f 3c 72 93 8d ba
       -0.04648164 -0.061038848 0.011705926 -0.0010801388
0003a0 67 c8 4e 3c 26 53 47 3c 7e 2b 82 bd 95 63 19 bd
       0.012621022 0.01216582 -0.06355952 -0.037448484
0003b0 8d d1 eb bc 3f 2e d7 bb b9 d6 97 bc 70 60 82 3b
       -0.028786445 -0.0065667923 -0.018535005 0.0039787814
0003c0 72 04 5d bd 98 45 3e bd 67 65 c5 bc 09 47 e4 3c
       -0.053959318 -0.04645309 -0.024096204 0.027865903
0003d0 0a 05 55 bd 76 e4 4d 3b f9 d9 06 3b 6c c3 60 bd
       -0.05200676 0.003141669 0.00205767 -0.05487387
0003e0 a3 89 8d bd a3 85 37 bd 8c 5a 9d 3c e7 c9 7a bc
       -0.06911018 -0.04480518 0.019208215 -0.015306926
0003f0 86 fa ba bc 46 29 f8 3b bc 8e de 3c 5a b6 2f 3c
       -0.022824537 0.0075732796 0.02716767 0.010724628

7.bias f4 [120]
000000 37 e2 e3 bb 17 f1 ab 3c ad 58 07 3d d9 e0 0f 3d
       -0.006954457 0.020988984 0.033043552 0.03512654
000010 e2 8c 85 3a 67 4b 48 3d b6 27 81 3b 2c 37 e9 bc
       0.0010189081 0.048900034 0.0039415015 -0.02846869
000020 04 6e 2e bd b6 43 4a bc 95 2f bc 3c 62 9d 55 bd
       -0.042585388 -0.012345245 0.022971908 -0.052152045
000030 07 71 43 3b 53 b6 8c 3d 44 cc 0e bd 10 21 6a bd
       0.0029822008 0.06870713 -0.03486277 -0.057160437
000040 38 2b 39 bd 06 2f 06 bd 36 0b d3 3c 2e ec 05 3c
       -0.045207232 -0.03275969 0.025762182 0.008173985
000050 8e ae 39 3c 4e bf de 3c 05 c5 06 3d 5a 98 ef bb
       0.011333121 0.02719083 0.032902736 -0.007311863
000060 63 1b ac 3c f8 ed 0d 3d e7 2f 8e 3d 54 c8 42 3d
       0.021009153 0.034650773 0.069427304 0.04755433
000070 9d e6 01 3d fa 3a 35 3c 5d b5 2e bd 22 25 ed bc
       0.03171407 0.011061424 -0.04265343 -0.02894837
000080 51 d7 8a bc 05 3e f0 bc 24 2d 9b bc 6d 62 f0 bc
       -0.016948374 -0.029326448 -0.018942423 -0.029343808
000090 3f 71 6f bc d5 cd 09 3c b9 d2 0c bd fd 63 83 bc
       -0.014614402 0.008410891 -0.03438065 -0.016038889
0000a0 8c b2 da 3b a8 10 fb bc 6c a4 88 3c 4d 8f 76 3b
       0.0066741165 -0.03064759 0.016679965 0.0037622035
0000b0 0e 4f bd bb e8 0b aa bc a1 81 11 bb 24 1b 2f bd
       -0.0057772463 -0.02075763 -0.002220251 -0.042750493
0000c0 e4 a4 29 bd ba e9 00 3d 5a 71 5b 3a 8a 4f 49 3c
       -0.041417018 0.0314729 0.0008371078 0.01228703
0000d0 c5 d9 c5 bc 6a ea 92 3c 04 57 18 3d 9b 37 ab bc
       -0.024151692 0.017934043 0.03719236 -0.020900538
0000e0 86 f4 25 3d 75 fd ca bc d0 2c 17 3d 0b f8 ca 3b
       0.0405164 -0.02477906 0.03690797 0.00619412
0000f0 95 35 60 3d 2f e3 6e bb 7c d7 2c bd ef 12 40 3d
       0.0547386 -0.003645133 -0.04219769 0.046893056
000100 03 43 d2 bc f5 2f e1 3c 9f a8 90 3c ef f1 2c 3d
       -0.02566672 0.027488688 0.01765853 0.042222913
000110 4d 61 10 3c b6 84 69 bd 28 34 d2 3b 2a f6 a0 bc
       0.008812261 -0.05701133 0.006414909 -0.01964863
000120 ac 20 d0 3b e6 51 45 bd f9 c9 52 bd e1 dc fc bc
       0.006351551 -0.048173808 -0.051462147 -0.030867042
000130 35 e8 ad bc e1 9b 52 bc 6e e3 bd bc f0 4b 58 3d
       -0.021228889 -0.012854547 -0.023179736 0.052806795
000140 ff 06 71 3d 73 f8 00 3b f5 19 23 bd c7 f6 86 3b
       0.058844563 0.0019679337 -0.039819676 0.0041187736
000150 be 33 21 3c cb a1 b7 3a 12 29 1e bd 5f 9f 1e 3d
       0.009838996 0.001401001 -0.038613386 0.038726207
000160 4c 0a 40 3c 1f 14 48 3d 4f 8d 00 bd 93 2a 3d bd
       0.011721205 0.048847314 -0.031384762 -0.04618318
000170 72 5e d7 3b c2 c5 6f 3d 16 e1 86 3d 00 1c 30 3d
       0.006572538 0.058538206 0.065859005 0.042995453
000180 a6 04 8d 3c 68 9b 09 3c 99 47 25 bd 2a 2a be 3c
       0.01721413 0.008398868 -0.040351484 0.023213465
000190 e3 13 a5 3c ef 08 09 3d 96 41 9e ba 07 b0 8f 3c
       0.020151084 0.033455785 -0.001207399 0.017539991
0001a0 02 67 98 3d 16 ee 4f 3d 38 97 d9 3c fe 8a f4 3b
       0.07441522 0.050764166 0.026561365 0.007462858
0001b0 d0 3f aa bc d0 50 0d 3d 8a 88 10 3a 68 09 da 3c
       -0.020782381 0.034500897 0.000551351 0.026615813
0001c0 07 6e 1c 3d d2 8e 8c 3c 85 30 59 bd 0b 6c da 3c
       0.038190868 0.017157946 -0.053024787 0.026662847
0001d0 d4 6b b9 bc 1c ae 75 3d 57 31 9a bc d1 7c 91 bd
       -0.022634424 0.059980497 -0.018822355 -0.07103885

9.weight f4 [84, 120]
000000 f8 7a 27 3d e2 c1 7f 3d 2c a4 8f 3d 45 fa dd bc
       0.040888757 0.06244076 0.07013735 -0.027096877
000010 f4 15 3e 3b ec 14 f2 3c 3c 77 b1 bd 8c fa 84 bd
       0.0029004784 0.029550992 -0.0866532 -0.064931005
000020 73 97 42 bd f1 f8 f3 3c 0c 8b 4f bd 20 82 9b 3c
       -0.047507714 0.02978179 -0.050669715 0.018982947
000030 b4 f5 7e 3d a8 2f 78 bd c0 52 93 3d 7f ac 81 bd
       0.06224604 -0.060592324 0.07193518 -0.06331729
000040 54 9f 88 3d 8b 91 81 bd 9e 1f c4 bd 43 db af bc
       0.066710144 -0.06326588 -0.09576343 -0.021466857
000050 f3 3c 4e 3d 98 0e 05 bc e6 d3 ee bc 39 44 59 3d
       0.050351094 -0.008121155 -0.029153775 0.053043578
000060 41 d8 77 bd 42 f9 3f bd 1e c4 1e 3e 8a 9b 17 3d
       -0.06050897 -0.04686857 0.155045 0.037013568
000070 80 a9 1d bd 44 60 a5 bb 96 fe 8b bc 6b 19 a6 bd
       -0.038491726 -0.005046876 -0.01708917 -0.08110317
000080 63 c1 ac bc 88 bb 1c bc ea 0b 84 3c 15 62 69 bc
       -0.021088308 -0.009566195 0.016118962 -0.014244576
000090 e1 be 92 bd d1 ac 37 bd ec 71 9a bc 21 92 d1 3c
       -0.071653135 -0.044842545 -0.01885315 0.025582375
0000a0 ff 4a b9 bb ef d7 98 bd b8 ce 45 3d 3f f3 53 3d
       -0.005654692 -0.07463061 0.048292845 0.05174565
0000b0 1d 64 81 3b b5 35 8d bd 0f 4e 13 be a0 1b c3 bd
       0.003948702 -0.068950094 -0.14385246 -0.095267534
0000c0 59 36 4e bc 78 20 df bd 0a e2 25 3d 08 7f 03 be
       -0.0125862 -0.10894865 0.04049877 -0.12841427
0000d0 7c 68 29 be 9c ee 1d 3d 03 dd 5e 3e 7f 29 83 bd
       -0.16543764 0.038557634 0.21763997 -0.06404399
0000e0 ba 85 02 bd f7 a4 69 bd 9f 60 28 3e 40 b7 27 3c
       -0.031865813 -0.05704209 0.16443108 0.010236561
0000f0 ba cd 92 3c b9 82 09 bd da cf 3c be 03 46 91 3d
       0.017920364 -0.033571932 -0.18438664 0.07093432
000100 d0 e6 98 3d 90 06 03 3e e9 ed c2 3d 97 b3 90 bc
       0.07465899 0.12795472 0.09518034 -0.01766376
000110 bb 2e 9c 3d 6e 3b 11 be b9 20 38 3c bd 51 3a bc
       0.07626101 -0.14182827 0.01123827 -0.011372027
000120 fe df 06 3e 75 8d b6 3b 87 f0 ff bc cb 6e 4c 3d
       0.13171384 0.005571062 -0.031242622 0.049910348
000130 05 02 d3 bd 14 28 ac 3d 44 b9 7a 3d c7 d5 09 3e
       -0.103031196 0.08406082 0.06121184 0.13460456
000140 f0 fc 9b 3d 68 5b dd bd ac 4e b2 3c 16 f3 94 bd
       0.076166034 -0.1080845 0.02176603 -0.072729275
000150 36 50 74 bd e4 15 8c 3c 67 9a 81 3b 7a 6f dc 3d
       -0.059646808 0.017100282 0.003955174 0.1076345
000160 61 22 1c 3e 0e 83 3b 3d b3 f7 21 3d 53 8e 80 bd
       0.1524749 0.04577928 0.039542865 -0.06277146
000170 00 b0 7c bc ee 6e 47 3d 3b 95 0f 3c d7 7e 23 bb
       -0.015422821 0.048689775 0.008763607 -0.0024947429
000180 3a e3 28 3d 3f 08 af bd 89 83 8e 3c 8c 84 bd 3d
       0.041232325 -0.08546495 0.017396705 0.09253797
000190 ce a3 22 3d 03 e4 44 bd b3 ee d4 bd 2d 95 f0 bc
       0.039706998 -0.04806901 -0.10397091 -0.029368008
0001a0 18 0f 2a bd 5c 03 9f bd 27 1c 41 be 1e 0a 05 bd
       -0.0415183 -0.077643126 -0.18858396 -0.03248035
0001b0 c7 7a 88 3d d3 1c a8 3d 57 7f 1b bd 53 dd 44 bd
       0.06664043 0.08208623 -0.037963238 -0.048062634
0001c0 6c 2d 6b bd f7 bc 48 bd ca 25 a9 3d fa 90 86 3c
       -0.057416365 -0.049008336 0.08259161 0.016426552
0001d0 e4 18 9a 3d a6 46 75 bd 61 79 bb 3c 29 99 02 be
       0.07524279 -0.05988183 0.022885026 -0.12753738
0001e0 01 45 54 3c 6a 38 15 bd 02 0d a5 3c 29 2a 99 3c
       0.012955905 -0.036430754 0.020147804 0.018696861
0001f0 ec 6e 42 3b ec 7e c9 3d 9f 98 28 3c 18 88 06 3e
       0.0029668165 0.098386616 0.010290294 0.13137853
000200 4e f2 83 3d c3 47 4b 3d fb f2 cb 3d e9 a8 25 bd
       0.064427 0.049628984 0.09958454 -0.04044429
000210 fa 3a 63 bd cc 4f 99 3d 01 b9 31 3d 76 41 18 bd
       -0.055476166 0.07485923 0.043389324 -0.037171803
000220 6c e1 68 3d b3 59 39 3d 83 42 16 3e 71 98 59 bd
       0.056855604 0.04525156 0.1467381 -0.053123895
000230 75 46 52 3d 7a 1b ac 3b f5 68 c8 3c 0d 86 60 bd
       0.051336724 0.005252299 0.02446411 -0.05481534
000240 a6 d7 ae 3d d0 33 96 bd 8c f0 a3 bd 8d c8 b7 bc
       0.085372254 -0.07334101 -0.08004865 -0.022434497
000250 0e 5d 8b 3d d5 f8 83 3d 23 a8 05 bc c8 fa a0 bd
       0.06804858 0.06443945 -0.008157763 -0.07860333
000260 d4 99 11 bc 5d 11 25 bd 33 b7 c5 bb 38 df 76 3d
       -0.008886773 -0.040299762 -0.006033802 0.06027147
000270 3b 51 a0 bd 20 18 b1 bc 5c dd d9 bc ea ec b2 3c
       -0.078279935 -0.021617949 -0.02659481 0.021841485
000280 35 1e c4 3d a7 a9 8a 3d fc 2a 7e 3d 7a ab 5e bd
       0.09576074 0.0677064 0.06205271 -0.05436275
000290 a9 20 06 bd 6c 3a aa bd 37 85 c1 3d 98 1e eb 3d
       -0.03274599 -0.08311924 0.09449237 0.11480445
0002a0 a9 61 ce bc b9 56 d5 3d 29 73 7a 3d 22 c8 7d bb
       -0.025193052 0.10416932 0.06114498 -0.0038724025
0002b0 08 59 3b 3c 55 25 1a bd 40 38 d0 bd 06 e2 be 3d
       0.011434801 -0.03763326 -0.10166979 0.09320454
0002c0 3a 6a 10 bd aa 1b 33 3e e5 64 d4 bd 72 19 3b bd
       -0.035257556 0.17491022 -0.103708066 -0.045678563
0002d0 ef fc ff bc e3 1d 82 bd 30 ee 1d 3e 83 83 03 3d
       -0.031248538 -0.06353357 0.15422893 0.03210784
0002e0 a5 72 30 bd 82 93 07 3d e7 93 0e be e9 cc 8c bd
       -0.043078084 0.03309966 -0.13923608 -0.06875021
0002f0 a2 75 b4 3d d2 9e fa 3d 21 2c af bd 7b cd e3 3d
       0.08811499 0.12237324 -0.08553339 0.11123177
000300 65 6c a6 bd 9f c7 fa bb 60 50 b4 bd eb a8 50 bd
       -0.08126143 -0.007653191 -0.08804393 -0.050942343
000310 f2 e6 a3 bd a4 ff 42 3d 1d a5 35 be 08 95 5e bd
       -0.08003034 0.04760708 -0.17738767 -0.054341346
000320 3f ca ef 3d 4e 50 2a 3e 49 cf 3f bd 1d 8e 79 bd
       0.11708497 0.16632196 -0.046828542 -0.060926545
000330 99 4d 29 3c 64 c4 47 3c f3 7b 1e 3e 2a 7d 90 3d
       0.010333442 0.012192819 0.1547697 0.07055123
000340 68 34 68 3d 9a 08 03 3e 90 43 d5 3c e3 e6 b9 bc
       0.056690603 0.1279625 0.026033193 -0.022693103
000350 08 39 be 3d ae 02 94 bd 57 be ff bd 15 3e 19 bd
       0.092882216 -0.072270736 -0.12487476 -0.03741272
000360 23 61 4b bd 13 fd c7 3d eb 91 ca 3b fe 51 dd 3a
       -0.049653184 0.09765067 0.0061819456 0.0016885397
000370 4b 1c 3e bd be c2 32 3e 1f 2e 54 3d 0f 8d 1f 3d
       -0.0464137 0.17457101 0.051801797 0.038952883
000380 9d fc 57 3e de bb 44 3d 68 7b a7 3c 78 0f 04 3e
       0.21092458 0.048030727 0.020444587 0.12896526
000390 68 68 d6 3c 10 e9 be bd ae 9c cb 3c 3d 0e 4c 3e
       0.026172832 -0.09321797 0.024854984 0.19927306
0003a0 5d fa 56 bd 71 e2 48 bc 8a 62 f4 3d 1f d6 ac 3c
       -0.05248486 -0.012261019 0.11932857 0.021098195
0003b0 e0 d2 c2 3c e2 37 9f 3d fe 42 ef bc a4 14 fe 3d
       0.023782194 0.07774331 -0.029206749 0.12406281
0003c0 e0 ad 53 bd 08 1d 05 3e 5d 85 97 bc 7e b2 5a b9
       -0.051679492 0.12999356 -0.01849621 -0.00020856594
0003d0 d1 00 67 3d 16 e0 fa bd d4 1d af bd a7 52 63 3d
       0.056397263 -0.12249772 -0.08550611 0.055498745
0003e0 c0 e6 98 3d 16 4d 78 3a 39 16 1c 3e a4 a6 70 3c
       0.07465887 0.0009471936 0.15242852 0.014688168
0003f0 a2 cb 31 3d 77 bd 12 3e d3 19 78 bd a6 b3 86 bd
       0.04340709 0.14330088 -0.060571503 -0.06577234

9.bias f4 [84]
000000 82 b6 ee 3c 9d 23 1d 3d 48 80 d7 3c 72 07 d8 3d
       0.02913976 0.03836404 0.026306286 0.10548295
000010 d6 06 76 3d 9c 9e b3 bd c5 01 47 bd a9 b9 9a bd
       0.060065113 -0.08770487 -0.048585672 -0.07554943
000020 f5 5b c1 3d 09 a9 91 bd 9e 66 8c bd 08 c2 8a bc
       0.094413675 -0.07112319 -0.0685551 -0.016938224
000030 fc 01 9b bc 3d 6b 64 3c 30 b9 16 bd 20 8a 08 3a
       -0.018921845 0.013941583 -0.036797702 0.00052085705
000040 c3 ab af bc 3d fb cd 3d 22 59 31 3d bd 88 24 3d
       -0.021444207 0.100576855 0.043297894 0.040169466
000050 fb c5 7b 3d 06 9d fe ba 52 b5 95 3d c9 7b d6 3d
       0.061468106 -0.0019425459 0.07309975 0.10472829
000060 e7 ec 60 bd ec a8 c3 3d 29 24 e7 bd d3 08 a7 bd
       -0.054913428 0.09553704 -0.11286194 -0.0815598
000070 b2 64 12 bd 3a 32 a1 3d c7 da 36 bd 0a fa 9d bd
       -0.03574056 0.07870908 -0.044642236 -0.07713707
000080 a1 83 41 bd 8d 06 86 3d 44 68 6b 3d a7 d6 88 bc
       -0.04724467 0.06544218 0.057472482 -0.016703917
000090 35 05 47 bd 31 df b2 3d 6a 4b bb 39 4a d1 2f bc
       -0.04858895 0.08733977 0.00035723607 -0.010731051
0000a0 e5 86 85 bb 8f ce 29 3d 9d 7a 5a bd ba 38 2b 3d
       -0.0040749186 0.041456755 -0.05333959 0.041802146
0000b0 79 5f 80 3d f9 eb 83 3c b1 64 b5 3d 54 b3 10 3d
       0.0626821 0.016103731 0.08857096 0.03532727
0000c0 ea 34 9f 3d f4 95 38 bc 28 16 8f 3d 2e 84 43 bd
       0.077737644 -0.01126622 0.06986648 -0.04773348
0000d0 f2 9c 46 3d 5e c1 cb 3d 0f 10 ec 3d 0f 40 9d bd
       0.04848952 0.09948991 0.115265004 -0.07678234
0000e0 36 64 e9 bc 09 b7 bd 3d d6 7d 70 3d 69 b3 fe bc
       -0.028490167 0.09263427 0.058713757 -0.031091409
0000f0 7f 32 aa bc e4 35 4c 3c 25 6d cf bc e3 66 bf 3d
       -0.020776032 0.01246402 -0.025320599 0.09345796
000100 56 ca 7f 3d 38 c7 85 b9 65 2b d4 3d fe e4 47 bc
       0.062448822 -0.00025516166 0.10359839 -0.012200592
000110 83 0c 13 bd d0 af 9d 3d 9c 5f 8f bd b9 66 3e 3c
       -0.035900604 0.07699549 -0.07000658 0.011621171
000120 d2 98 fb bb 95 cf 9e 3d 43 18 a7 bd cb 33 7d 3d
       -0.0076781297 0.07754437 -0.081589244 0.06181697
000130 ed 14 a5 3d ac f0 81 3c 90 be 86 bc eb 8e b1 bd
       0.08060632 0.015861832 -0.01644829 -0.086698376
000140 6f e1 a3 bb 96 1d f5 3d de 56 bd 3b 44 ee 3f bd
       -0.005001239 0.11968534 0.0057781776 -0.046858087

11.weight f4 [10, 84]
000000 f7 82 16 be 1a a2 1d be 29 46 64 be e6 5e 0f 3d
       -0.14698397 -0.15393868 -0.22292389 0.03500261
000010 9d a3 6b 3d 15 fd f0 bd 88 96 96 bd a6 89 c6 bc
       0.05752908 -0.117670216 -0.0735293 -0.024235558
000020 b2 bb 9c bd 75 7a d0 3d d3 a5 22 3d c7 76 df 3d
       -0.076529875 0.10179607 0.039708924 0.10911327
000030 0d 49 92 3d 49 0c c2 3d 52 1f 96 bb 8e 31 0b 3d
       0.071428396 0.094749995 -0.0045813704 0.033982806
000040 85 ca 1d be e2 bd 02 be d4 32 4c ba 92 1d 0e 3e
       -0.15409286 -0.12767747 -0.00077895564 0.13878468
000050 ff f9 10 be 5c 6c cb 3d 43 26 82 bd f4 54 10 be
       -0.14157866 0.09932777 -0.06354954 -0.14094907
000060 59 f6 00 be 87 8a b4 bd 1b d0 d5 bc bd da 45 3d
       -0.12593974 -0.088154845 -0.026100209 0.04830431
000070 01 0e 84 3d f9 7a c0 bd 2c b4 ea bd c7 77 77 bd
       0.064479835 -0.09398455 -0.11460146 -0.060416963
000080 4c 26 8c 3c ce 48 13 3e df c7 f8 bc 6d ad ba 3b
       0.017108105 0.14383242 -0.030368743 0.0056969435
000090 1c 90 5c 3d 73 71 c4 bd 09 6b 1f 3b 7e 52 eb 3c
       0.05384837 -0.09591951 0.0024325273 0.028725859
0000a0 79 f7 1a 3e 39 43 d5 bd fe 23 fe bd ee 7e 14 3e
       0.15133466 -0.10413212 -0.12409209 0.14501545
0000b0 60 89 67 be 27 f2 9e 3d 5a bb e6 bd 3a 54 ec 3d
       -0.22610998 0.07761031 -0.11266203 0.115395024
0000c0 15 dc 84 bd 77 1a 67 be 7e d7 57 bd f9 b1 c5 bd
       -0.0648729 -0.2256869 -0.052695744 -0.09653086
0000d0 34 5d 57 be 0e 05 c3 bd a6 6a 5d bc 27 bb fb bc
       -0.21031648 -0.095224485 -0.0135141965 -0.03072889
0000e0 2f ad cf bd f7 0f 1e 3c b7 15 13 be a6 82 ec 3d
       -0.10140454 0.009647361 -0.14363752 0.11548357
0000f0 80 e5 cc 3c 7d ca ed 3d 83 03 0a 3e 5a 89 44 be
       0.025011778 0.11610887 0.13477902 -0.1919302
000100 8d 58 d3 bb 88 ad 1d be 90 d9 00 3e 32 82 e7 3b
       -0.006449765 -0.15398228 0.12582994 0.007065081
000110 c2 18 a8 3d 97 e9 60 be 1d 0b f1 3b 3b 77 24 3d
       0.08207847 -0.21964107 0.007356061 0.04015277
000120 05 f0 bb 3c 5c 7f 2c 3d 8d 07 b8 bd 92 77 95 bb
       0.022941599 0.042113647 -0.08985815 -0.004561373
000130 78 32 77 3d eb 25 c1 3d 2e 1e d3 3d 0a f1 2c 3d
       0.060350865 0.094310604 0.10308491 0.04222206
000140 ad bb cb bb a1 1b 1d be ae 71 50 be dc be 9b 3d
       -0.006217441 -0.15342571 -0.20355865 0.07604763
000150 6a 9f 1d be ca d7 e5 3d e6 cb 98 bd cf a6 10 be
       -0.15392843 0.11222799 -0.074607655 -0.14126132
000160 7f f8 54 be 64 e6 ad 3d ed 0f 1e 3e b9 84 df 3d
       -0.20797919 0.08491209 0.15435763 0.10913987
000170 48 25 52 be 5c a2 87 bd 16 2b a7 3d 9e 77 da bd
       -0.20522034 -0.066227645 0.08162515 -0.106673464
000180 87 d9 fb 3d d9 f2 77 be 93 7a e7 3d dc d8 cb 3d
       0.122973494 -0.24213733 0.11302676 0.09953472
000190 5e 5e 01 3c 82 59 f0 3d 5f 15 2c 3d 16 a2 85 bc
       0.007896034 0.11735822 0.04201257 -0.01631264
0001a0 f0 94 cd 3c 5f 48 8a bc e0 1b e9 3d a8 67 54 3d
       0.025095433 -0.016880212 0.1138227 0.051856667
0001b0 a5 02 f9 3d b3 ff 97 bd 69 29 9e 3d 57 58 ab bc
       0.121587075 -0.07421818 0.07722742 -0.020916147
0001c0 ca f8 54 be b7 7c a9 bc 32 2a 0a 3e ff 15 93 3d
       -0.2079803 -0.020689351 0.13492659 0.0718193
0001d0 ff 1e f4 3c e1 af 54 3d 39 1b d2 bc 90 74 f0 bd
       0.029799936 0.051925544 -0.025647746 -0.117409825
0001e0 2e 33 d0 3d 16 15 20 3d b1 fa 9f bd 45 60 51 be
       0.10166012 0.03908261 -0.078114875 -0.2044688
0001f0 92 20 60 3d 14 8a ef bd a9 0e 33 be bc 42 42 bd
       0.05471856 -0.11696258 -0.17486061 -0.047426924
000200 48 2c 26 3e 74 e6 08 be 18 a6 02 3e 9a 7d d3 3d
       0.1622783 -0.13369161 0.12758672 0.10326691
000210 60 37 03 3e 33 6f c8 3d 69 38 b5 bd 31 d3 d8 bd
       0.12814093 0.097868346 -0.0884865 -0.105871566
000220 22 e4 4e be c3 a8 4c be f4 9b 19 be b4 31 7a bd
       -0.20204213 -0.19986252 -0.15000898 -0.061082557
000230 a5 b6 65 3c e0 da b2 bc eb e8 18 3e 31 a0 b3 3d
       0.014020597 -0.021832883 0.14932601 0.087707885
000240 69 d6 98 3d 98 93 d3 bd 4a 04 ed 3d 4d 20 82 3d
       0.074627705 -0.10330886 0.11573084 0.06353817
000250 19 a2 b5 3d 45 47 8d 3d cd c6 73 bc 67 d7 2b 3d
       0.08868808 0.06898359 -0.014878941 0.04195347
000260 7a 1d 3f bc 49 61 b6 3d f7 c3 5d 3d 67 18 37 be
       -0.011664743 0.089052744 0.054141965 -0.17880403
000270 80 00 31 be 8b 5b 92 bd b0 6d 2d be b8 c5 db 3d
       -0.17285347 -0.07146367 -0.16936374 0.10731071
000280 a0 9d 83 be 0a 80 03 3e 00 44 8d be 87 17 11 be
       -0.25706196 0.12841812 -0.27590942 -0.14169131
000290 1f 3f 95 bd 8c 2c 6d be 1f 59 d2 bc df 2d a2 bc
       -0.0728743 -0.23161525 -0.025677262 -0.019797264
0002a0 92 6a 4d be b1 de 63 3d 0f 4f da 3c 01 a0 07 bd
       -0.20060185 0.055632297 0.026649026 -0.033111576
0002b0 69 b4 0f be 86 a7 38 3d 73 f0 d3 3d 1f 3f e8 bd
       -0.14033665 0.045081638 0.103485964 -0.113401644
0002c0 d3 72 35 be 2e a7 72 be e3 03 9e 3c 63 56 1f 3e
       -0.17719583 -0.23696586 0.019288963 0.15560298
0002d0 ee 22 fa bd 60 89 18 be 47 3c 9a 3d 89 a4 8d bd
       -0.122136936 -0.14896154 0.07531028 -0.06916148
0002e0 d8 be 9f 3d bc d9 23 be ee 35 7b 3d bd 5c 91 3a
       0.078000724 -0.16001028 0.06133073 0.001109026
0002f0 51 73 c7 bd 57 db 87 bc 5c d5 2e 3d 6e 5c 32 3e
       -0.09738792 -0.016584082 0.042683944 0.17418072
000300 30 fe 2c be 72 03 b6 3c d8 8d ef 3b 5a 48 93 be
       -0.1689384 0.02221844 0.0073106103 -0.28766137
000310 24 1e ce bd ff 04 83 be 85 58 b1 bd ad db 73 3d
       -0.100643426 -0.2558975 -0.08659462 0.05953567
000320 a1 7c 65 bd a6 a3 05 3e 7a 9b 56 3d f6 08 a5 3d
       -0.05602706 0.13050708 0.052394368 0.0805835
000330 1d f9 53 3d 0b f1 b3 3d dd ab 6b 3d 0a 52 6d 3c
       0.051751245 0.0878621 0.05753695 0.014484892
000340 61 f8 ae 3a ab 83 2d be 10 07 1e 3e d0 82 f0 bc
       0.0013349169 -0.16944759 0.15432382 -0.029359251
000350 1c 13 2a be 85 71 11 be 2a 40 d8 3d ac 76 d1 3d
       -0.16608852 -0.1420346 0.10559113 0.10227713
000360 3a e7 18 be 3d 07 fa bd 12 d2 7a bd 11 e3 e8 bb
       -0.14931956 -0.12208412 -0.061235495 -0.0071071465
000370 a2 73 11 3d b1 b8 74 bc c0 14 0f 3e 2c 93 ad bd
       0.035510667 -0.014936612 0.13972759 -0.084753364
000380 22 66 03 3e 31 9a fd 3d d7 bc a2 bd c0 7d 82 bd
       0.1283193 0.12382925 -0.079461746 -0.06371641
000390 21 f1 2d 3c e0 96 19 be 27 db 0a 3e c7 b5 dc bc
       0.010616572 -0.1499896 0.13560162 -0.026942147
0003a0 64 6b 7a bd 35 21 8b 3d 5e 19 b6 3d 05 8e a9 3a
       -0.061137572 0.06793443 0.08891557 0.0012936002
0003b0 b8 74 c1 bd b0 f8 2a bc 76 3e 80 3c e5 42 12 3e
       -0.094460905 -0.010435268 0.015654784 0.1428333
0003c0 38 f9 4c bd 45 8d 5f be db bc d0 bc 8b e5 47 be
       -0.05004236 -0.21831234 -0.025480678 -0.19521157
0003d0 1f 74 20 bd 5c 95 8e 3d 6b 58 8a bd 71 0c 57 bd
       -0.03917324 0.06962082 -0.06755146 -0.0525021
0003e0 c6 ec 75 bd f3 00 d8 3a 39 2b ae bc d2 0f 47 3c
       -0.060040258 0.0016479775 -0.021260845 0.012149768
0003f0 59 50 d1 3d 15 93 4f be b5 f5 05 3e 3e 96 b4 3c
       0.10220403 -0.20270951 0.13082011 0.022044297

11.bias f4 [10]
000000 26 c6 9d 3d 58 4b 34 bd 35 c1 11 bd 0d 8e 3a 3d
       0.077038094 -0.044017166 -0.035584647 0.045545626
000010 b1 71 d6 bc ef a3 ac bd aa ce ee bd 36 95 b8 3d
       -0.02617726 -0.08429705 -0.11660512 0.09012835
000020 26 8d 08 3e 9f 6a ee 3c
       0.13335094 0.029103575
